cude available True
[INFO: train.py:  131]: Initializing train dataset
[INFO: train.py:  133]: Initializing val dataset
[INFO: train.py:  147]: There are 4.53515625 iterations per epoch
[INFO: train.py:  184]: Here is the late-attention generator:
[INFO: train.py:  185]: LateAttentionFullGenerator(
  (intention_encoder): Encoder(
    (encoder): LSTM(16, 32)
    (spatial_embedding): Linear(in_features=2, out_features=16, bias=True)
  )
  (force_encoder): Encoder(
    (encoder): LSTM(16, 32)
    (spatial_embedding): Linear(in_features=2, out_features=16, bias=True)
  )
  (intention_decoder): Decoder(
    (decoder): LSTM(16, 32)
    (spatial_embedding): Linear(in_features=2, out_features=16, bias=True)
    (hidden2pos): Linear(in_features=32, out_features=2, bias=True)
  )
  (force_decoder): Decoder(
    (decoder): LSTM(16, 32)
    (spatial_embedding): Linear(in_features=2, out_features=16, bias=True)
    (hidden2pos): Linear(in_features=32, out_features=2, bias=True)
  )
  (pool_net): SocialPooling(
    (mlp_pool): Sequential(
      (0): Linear(in_features=2048, out_features=32, bias=True)
      (1): ReLU()
    )
  )
  (force_mlp_decoder_context): Sequential(
    (0): Linear(in_features=64, out_features=64, bias=True)
    (1): ReLU()
    (2): Linear(in_features=64, out_features=32, bias=True)
    (3): ReLU()
  )
  (intention_mlp_decoder_context): Sequential(
    (0): Linear(in_features=32, out_features=64, bias=True)
    (1): ReLU()
    (2): Linear(in_features=64, out_features=30, bias=True)
    (3): ReLU()
  )
  (attention_mlp): Linear(in_features=64, out_features=2, bias=True)
)
[INFO: train.py:  201]: Here is the discriminator:
[INFO: train.py:  202]: TrajectoryDiscriminator(
  (encoder): Encoder(
    (encoder): LSTM(16, 64)
    (spatial_embedding): Linear(in_features=2, out_features=16, bias=True)
  )
  (real_classifier): Sequential(
    (0): Linear(in_features=64, out_features=64, bias=True)
    (1): ReLU()
    (2): Linear(in_features=64, out_features=1, bias=True)
    (3): ReLU()
  )
)
[INFO: train.py:  273]: Starting epoch 1
[INFO: train.py:  274]: Epoch resist loss: tensor([0.])
[INFO: train.py:  552]: resist loss: tensor([210.0662], device='cuda:0')
[INFO: train.py:  304]: g step took 17.82869863510132
[INFO: train.py:  552]: resist loss: tensor([251.4082], device='cuda:0')
[INFO: train.py:  304]: g step took 17.02526879310608
…
