[INFO: train.py:  131]: Initializing train dataset
[INFO: train.py:  133]: Initializing val dataset
[INFO: train.py:  147]: There are 21.03125 iterations per epoch
[INFO: train.py:  150]: There are 10515 iterations
[INFO: train.py:  153]: There are 500 epochs
[INFO: train.py:  190]: Here is the late-attention generator:
[INFO: train.py:  191]: LateAttentionFullGenerator(
  (intention_encoder): Encoder(
    (encoder): LSTM(16, 32)
    (spatial_embedding): Linear(in_features=2, out_features=16, bias=True)
  )
  (force_encoder): Encoder(
    (encoder): LSTM(16, 32)
    (spatial_embedding): Linear(in_features=2, out_features=16, bias=True)
  )
  (intention_decoder): Decoder(
    (decoder): LSTM(16, 32)
    (spatial_embedding): Linear(in_features=2, out_features=16, bias=True)
    (hidden2pos): Linear(in_features=32, out_features=2, bias=True)
  )
  (force_decoder): Decoder(
    (decoder): LSTM(16, 32)
    (spatial_embedding): Linear(in_features=2, out_features=16, bias=True)
    (hidden2pos): Linear(in_features=32, out_features=2, bias=True)
  )
  (pool_net): SocialPooling(
    (mlp_pool): Sequential(
      (0): Linear(in_features=2048, out_features=32, bias=True)
      (1): ReLU()
    )
  )
  (force_mlp_decoder_context): Sequential(
    (0): Linear(in_features=64, out_features=64, bias=True)
    (1): ReLU()
    (2): Linear(in_features=64, out_features=32, bias=True)
    (3): ReLU()
  )
  (intention_mlp_decoder_context): Sequential(
    (0): Linear(in_features=32, out_features=64, bias=True)
    (1): ReLU()
    (2): Linear(in_features=64, out_features=30, bias=True)
    (3): ReLU()
  )
  (attention_mlp): Linear(in_features=64, out_features=2, bias=True)
)
[INFO: train.py:  207]: Here is the discriminator:
[INFO: train.py:  208]: TrajectoryDiscriminator(
  (encoder): Encoder(
    (encoder): LSTM(16, 64)
    (spatial_embedding): Linear(in_features=2, out_features=16, bias=True)
  )
  (real_classifier): Sequential(
    (0): Linear(in_features=64, out_features=64, bias=True)
    (1): ReLU()
    (2): Linear(in_features=64, out_features=1, bias=True)
    (3): ReLU()
  )
)
[INFO: train.py:  230]: Restoring from checkpoint ./models/headingloss_zara1_batch32_epoch500_spool_with_model.pt
[INFO: train.py:  279]: Starting epoch 238
[INFO: train.py:  280]: Epoch resist loss: tensor([ 0.])
[INFO: train.py:  569]: resist loss: tensor([ 29.9671], device='cuda:0')
[INFO: train.py:  310]: g step took 7.291207551956177
…
